Model: "sequential"
_________________________________________________________________
Layer (type)                 Output Shape              Param #   
=================================================================
conv2D_1 (Conv2D)            (None, 764, 2044, 32)     2432      
_________________________________________________________________
activation_1 (Activation)    (None, 764, 2044, 32)     0         
_________________________________________________________________
maxPooling2D_1 (MaxPooling2D (None, 152, 408, 32)      0         
_________________________________________________________________
activation_2 (Activation)    (None, 152, 408, 32)      0         
_________________________________________________________________
conv2D_2 (Conv2D)            (None, 148, 404, 64)      51264     
_________________________________________________________________
activation_3 (Activation)    (None, 148, 404, 64)      0         
_________________________________________________________________
maxPooling2D_2 (MaxPooling2D (None, 14, 40, 64)        0         
_________________________________________________________________
activation_4 (Activation)    (None, 14, 40, 64)        0         
_________________________________________________________________
conv2D_3 (Conv2D)            (None, 10, 36, 64)        102464    
_________________________________________________________________
activation_5 (Activation)    (None, 10, 36, 64)        0         
_________________________________________________________________
maxPooling2D_3 (MaxPooling2D (None, 1, 3, 64)          0         
_________________________________________________________________
flatten_1 (Flatten)          (None, 192)               0         
_________________________________________________________________
dense_1 (Dense)              (None, 3)                 579       
=================================================================
Total params: 156,739
Trainable params: 156,739
Non-trainable params: 0
_________________________________________________________________
total image count: 250
----------------------------------------------------------------------------------------------------
images 0 to 10:
10/10 [==============================] - 2s 190ms/sample - loss: 0.1101 - mean_absolute_percentage_error: 24.1350
…
